models/01_torch_intro_task_2.pth (torch, 542568 bytes, 8 tensors)

layer1.weight f4 [128, 784]
000000 7e 67 d9 bc ea e6 04 bd ba 3e cd 3c c7 24 a0 bc
       -0.026538607 -0.03244678 0.025054324 -0.019548787
000010 0e 47 98 3c 65 5b b7 bc aa f6 e5 bc 8b 7e 02 bd
       0.018588569 -0.022382447 -0.02807172 -0.031858962
000020 0c d0 10 bd c9 9f 04 3d 84 62 48 3c ba 59 bc 3c
       -0.03535466 0.032378945 0.012230519 0.022992004
000030 63 ba 1f 3d d9 e1 5a 3c 4d 6b 0f 3c 69 fe a4 3b
       0.03899611 0.01335951 0.00875361 0.005035211
000040 80 51 89 b9 3e 7a b3 bc 2e b0 54 bc 40 b3 6b ba
       -0.00026191399 -0.021908876 -0.012981458 -0.0008991249
000050 28 e4 b1 bc 7e a0 87 3c b6 fb c4 3c 58 9d 6a 3c
       -0.021715239 0.01655602 0.024045806 0.01431974
000060 80 e6 bd 3c c8 18 7f 3c d4 d9 94 bb a0 75 b4 3c
       0.0231812 0.015569873 -0.0045425687 0.022028744
000070 48 f1 e9 bc c0 46 b1 bb 27 52 07 bd 1c 6d b4 bc
       -0.028557435 -0.0054100454 -0.03303733 -0.022024684
000080 64 30 9c bb 17 fc 9d bc 21 b6 8a 3c 66 78 ef bc
       -0.004766511 -0.019285245 0.016932549 -0.029232215
000090 a5 d0 1a bd d1 7e 58 bd 80 64 2e bc 89 0b 9a 3d
       -0.037796635 -0.052855317 -0.010644078 0.075217314
0000a0 24 60 a7 3d 69 ba 9f 3d 4b e2 80 3d 2f 0e ca 3c
       0.08172634 0.07799227 0.06293162 0.024664966
0000b0 95 48 62 3d 92 2f 56 3d 12 d9 25 3c 17 6c 43 bd
       0.055245 0.05229146 0.010122554 -0.047710504
0000c0 59 96 6f bd cf 41 17 bd ae 89 b5 3c cd b3 10 bd
       -0.058492992 -0.036927994 0.022160377 -0.03532772
0000d0 da 16 d2 bc 48 3c 00 3c ca 9d e5 3c d4 0d fa bb
       -0.025645662 0.007826872 0.028029341 -0.007631043
0000e0 e0 36 51 bb c8 b3 b4 3c 47 61 10 3d 16 87 56 3b
       -0.0031923577 0.022058383 0.03524902 0.0032734326
0000f0 3f 2e 04 bd 29 97 97 3a ee 1e da bc ae 35 13 bd
       -0.032270666 0.0011565435 -0.026626077 -0.035939865
000100 1d d0 31 bd 86 4e 64 bd ce c8 e0 bc c7 ca 6e bd
       -0.043411363 -0.05573895 -0.027439501 -0.058298852
000110 ac 7a 8f 3d 4e 00 72 3d 07 11 7b 3d 9b c1 07 3d
       0.0700582 0.05908232 0.061295535 0.03314362
000120 fb fa 88 3d 56 67 74 3b 2a bf 37 bd bf 95 be bc
       0.06688496 0.0037293038 -0.044860043 -0.023264764
000130 0c 08 30 bd 9a f3 96 bd 0c 38 52 bd 16 df 1d bd
       -0.042976424 -0.07370682 -0.05132298 -0.03854283
000140 d5 9d 2e bd e5 42 01 bc 10 26 3c bb 10 fd 07 bd
       -0.04263099 -0.007889484 -0.002870921 -0.033200324
000150 e0 3b 09 bb 40 f4 02 3c a3 a1 25 bc 03 11 3a bc
       -0.002094023 0.007992804 -0.010109338 -0.011356595
000160 17 a5 47 3d 58 69 8a bd ca 46 24 bc be 8c 18 bd
       0.048741426 -0.06758374 -0.010026643 -0.037243597
000170 34 40 eb bc 2a 52 62 bd d7 08 41 bd f3 3e 0f bd
       -0.028717138 -0.05525414 -0.04712757 -0.034972142
000180 7f 04 1d bd 52 81 83 3b d3 35 72 3d 6d cb d9 3c
       -0.038334366 0.004013219 0.059133362 0.026586259
000190 29 1f 7c 3d 03 04 5a 3c fa 18 32 3c f0 90 b3 bc
       0.061553154 0.0133066205 0.010870213 -0.021919698
0001a0 4a 36 13 bc 19 32 42 bd ff b7 52 bc 3d 16 8b bd
       -0.0089851115 -0.047411058 -0.012861251 -0.06791351
0001b0 a9 40 ed bc ff 09 cb 3c e7 4c 94 3c 50 d0 bf 3c
       -0.028961496 0.02478504 0.018103076 0.02341476
0001c0 22 92 f3 3c 32 46 b6 3c e7 b2 9a bc 21 2a 18 3d
       0.029732767 0.022250269 -0.018884135 0.037149552
0001d0 49 e8 9e bd 5b 6b 41 bd 20 b3 ef bc 10 1a 85 bd
       -0.07759149 -0.047221523 -0.029260218 -0.06499112
0001e0 34 49 0e bd 29 d9 16 bd 92 8e 59 bd 48 6a 2f 3b
       -0.03473778 -0.036828194 -0.05311448 0.002676623
0001f0 dc 69 e4 bc 16 61 5e 3b 17 32 d3 bc 2c 81 74 bb
       -0.027882509 0.003393238 -0.02578072 -0.0037308438
000200 a6 9e d8 3c 15 c6 95 bc 4c 15 26 bb 1c 0a 11 bb
       0.026442837 -0.01828293 -0.0025342284 -0.002213127
000210 15 61 2a 3d 01 59 a5 3c 99 cc ed 3c d4 3b 8c 3c
       0.04159649 0.020184042 0.029028224 0.017118372
000220 37 af 2c 3d 63 27 92 bc e6 ce c6 bc 45 ac 9f bd
       0.042159285 -0.017841047 -0.024268579 -0.0779653
000230 90 ec ae 3b 7a 3b f9 bc 3b aa 26 3d 8e 4c 3b 3d
       0.005338259 -0.030423868 0.04068969 0.045727305
000240 e7 df fa bc c3 6a d3 bb c1 36 d0 bc f2 e5 d0 bb
       -0.030624343 -0.006451936 -0.025416734 -0.006375068
000250 da 73 9f bd 3b fb a1 bc 51 b3 6e bd 4d 48 1c bd
       -0.07785769 -0.019773116 -0.05827648 -0.03815489
000260 9b 0d 80 bd db 24 fb bb a7 b5 3d bc 33 3e d9 bc
       -0.06252595 -0.0076643056 -0.011578954 -0.026518917
000270 42 bf 34 bd d0 b7 c1 bb 64 42 b5 bc e9 68 38 bd
       -0.04412771 -0.0059118047 -0.022126384 -0.045021925
000280 01 f0 98 bc 64 e7 a0 3c bb 0e 88 3c ae e3 ff 3b
       -0.01866913 0.019641586 0.016608587 0.007809124
000290 30 64 af bb f5 fe 3d 3d e5 03 60 3d e8 9d 2f bd
       -0.0053525195 0.046385724 0.054691214 -0.0428752
0002a0 b0 47 2e 3c c1 ca 3b 3c c2 45 75 3d 00 61 42 bc
       0.010637209 0.0114619145 0.05988098 -0.011863947
0002b0 8d ca 70 bd c9 c5 bc bb a4 a7 b7 bc 90 42 ac 3b
       -0.058786917 -0.0057608825 -0.022418804 0.0052569583
0002c0 4f ee d7 bc 51 cb 61 bd 98 cb 1a bd 40 8d e3 bc
       -0.026358752 -0.05512554 -0.03779182 -0.027777314
0002d0 1e 77 aa bc 19 80 ba bc ae 99 b4 bc e5 c2 28 bc
       -0.020808753 -0.02276616 -0.022045936 -0.010300373
0002e0 1c 83 60 bd 2d 48 fa bc 31 38 72 bd 88 95 f2 bc
       -0.054812536 -0.030551994 -0.05913562 -0.029612318
0002f0 b3 2b 8d 3c 39 26 d4 bb 6a ec 11 3d 5e d2 26 3d
       0.017232751 -0.006474283 0.035625853 0.040727966
000300 ae 7b 8f 39 25 61 ee 3c 4a cc 09 3c 81 92 69 3d
       0.00027367234 0.029099056 0.008410523 0.057024483
000310 d8 b1 0f 3c 35 74 07 3d 62 82 4f 3b e4 3e 5d bd
       0.008770429 0.033069808 0.0031663408 -0.054015055
000320 5f 8b e7 bc d5 d0 e4 bc 54 81 d6 3b 3f 34 65 bd
       -0.0282647 -0.02793161 0.006546179 -0.05595803
000330 74 29 29 bd d0 fb 87 bc dd a7 14 bd 3d 59 f4 bc
       -0.0412993 -0.016599566 -0.0362929 -0.029827708
000340 d1 37 7b bd 8e 5d 3e bd 88 9b 87 bc e4 62 29 bd
       -0.061332528 -0.04647594 -0.016553655 -0.041354075
000350 83 53 b2 3c 38 19 e6 bc b5 9b 05 bd 8e 1a cf 3c
       0.021768337 -0.028088197 -0.032619197 0.025281217
000360 3f 53 1c 3d 0d 61 25 3d be 09 8e 3d 3f 6c d8 3c
       0.038165327 0.040375758 0.06935452 0.026418803
000370 67 77 f4 3c a4 45 53 3d a6 e7 39 3c 6a d8 ad 3d
       0.029842092 0.051580086 0.011346733 0.08488543
000380 87 3a 9b 3d ef 7d 08 3c 03 11 0d 3d 24 04 11 bd
       0.075795226 0.008330806 0.03444005 -0.03540434
000390 a9 43 9c bd 12 a0 8e bd b2 79 2f bd 4b 1f 09 bd
       -0.07630093 -0.06964125 -0.042840667 -0.03347711
0003a0 54 fe 73 ba 35 eb 91 bd 90 68 5b bd 37 00 80 bd
       -0.0009307612 -0.0712494 -0.053566515 -0.06250041
0003b0 09 f6 00 bd ed 41 08 3c 39 7e db 3c f6 d2 e3 3c
       -0.031484637 0.008316499 0.026793586 0.027810555
0003c0 da f5 10 3d 1c c0 a1 3a 93 5c 8c 3d 65 2c 1a 3d
       0.035390712 0.0012340578 0.06853595 0.037639994
0003d0 fe 27 8d 3d ca fb b7 3d cf 18 31 3d d6 9a 9b 3d
       0.068923935 0.08983572 0.04323655 0.07597892
0003e0 78 58 92 3d 4f d7 8d 3d 35 79 82 3d 4c 1e 62 3d
       0.0714578 0.069258325 0.06370775 0.055204675
0003f0 bb 71 28 3d 3c 20 72 3d 8d 27 28 3c 1b 86 e0 bb
       0.041124087 0.059112772 0.010263336 -0.006851924

layer1.bias f4 [128]
000000 f8 cd 01 3d d9 55 02 3d b5 8e 8e 3d 0b 92 77 3d
       0.031690568 0.031820152 0.06960813 0.06044201
000010 aa f5 c0 3c ee 57 b8 3c c7 79 08 3d 76 5a 40 3d
       0.023554642 0.022502866 0.03331926 0.04696127
000020 6b 29 83 3d ff 5c 38 3d 80 1a c8 3c bf 6d b9 bc
       0.06404384 0.045010563 0.024426699 -0.022635339
000030 e6 05 4e 3c 75 4b 86 3d c8 f1 a9 3d 7a 99 1d 3d
       0.0125746485 0.06557361 0.08298069 0.038476445
000040 5a c0 2b 3d 09 ee e3 bc 00 43 03 3d 11 4b 26 3d
       0.041931488 -0.027823465 0.032046318 0.040598933
000050 ea c9 1b 3d 6e 0c 4f 3d 59 ec 2a 3d 84 fa 13 bd
       0.038034357 0.050548963 0.041729305 -0.036127582
000060 8a 73 83 3d 0c 53 59 3b af f0 23 3d a5 21 21 bb
       0.06418522 0.0033161072 0.040024456 -0.0024586704
000070 2b b9 1f bc 30 07 a0 bc 95 b3 28 bd 4b aa 81 ba
       -0.009748737 -0.019534677 -0.041186888 -0.000989267
000080 ac f4 39 3d 63 19 f7 bc 5d 87 bb 3c fc 85 5c bc
       0.045399353 -0.030163473 0.022891695 -0.013459679
000090 3a ee 63 3d 75 e6 8d bb 61 ff 29 3d 8a e9 37 3d
       0.055647112 -0.004330451 0.041503314 0.044900455
0000a0 46 40 35 3c d0 e0 32 bb e9 6d 89 3d f5 b0 8d bc
       0.011062687 -0.0027294643 0.06710417 -0.017296294
0000b0 b8 12 a5 3b 63 c6 1c 3d d6 21 47 3d db fa 1b 3d
       0.005037632 0.038275134 0.048616253 0.03808103
0000c0 c8 dc c1 bc c2 52 90 3c ac 37 bb 3b 1b af 92 3d
       -0.023664847 0.017617587 0.0057134237 0.07162305
0000d0 10 f7 b0 bb 7b 29 18 3d b1 46 61 3c d5 2f 5a 3d
       -0.005400546 0.037148934 0.013749764 0.053268272
0000e0 36 e2 02 3d 2c 89 f1 3c 4a f9 00 3d ae ce 26 3d
       0.031954013 0.029484354 0.03148774 0.04072445
0000f0 50 4b 36 3b ab 66 9e 3c 94 37 7d 3c fc 44 22 3b
       0.0027815886 0.019336065 0.015455145 0.0024760356
000100 af d7 5d 3d 94 c4 e9 bc f8 dc d0 bc d7 e0 0d 3d
       0.05416077 -0.028536119 -0.025495991 0.034638252
000110 d0 87 03 3d 85 ab 0c 3c 4f 3f 98 3d 41 fd 80 bd
       0.032111943 0.008585815 0.0743395 -0.06298304
000120 0a e7 a0 bb ce da 22 3d 35 dc c9 3c 3a e9 81 bb
       -0.0049103545 0.03975945 0.024641136 -0.0039645704
000130 0b 39 e5 3b a9 87 90 ba db 1f 8d bc f9 f2 29 3a
       0.0069953254 -0.0011026758 -0.017227104 0.0006483044
000140 e1 4b 55 3c fd a6 98 bc 7e a6 22 3d f6 fe 17 bc
       0.013018579 -0.018634314 0.03970956 -0.009277096
000150 be 94 a9 3b 55 b1 99 3d 05 19 74 3d 67 25 ae 3c
       0.005175202 0.075045265 0.059594173 0.02125807
000160 a4 11 88 3d 93 7d 80 bb 58 7b 28 3d 22 09 4b 3d
       0.0664399 -0.0039212196 0.041133255 0.049569257
000170 ee fb 9d 3c 19 2a 33 bb f9 1a fd 3c ad a2 63 3c
       0.019285168 -0.0027338325 0.03089665 0.013893765
000180 42 23 0b 3d ae e0 45 3c 0b 38 23 3d 30 90 39 3d
       0.03396917 0.012077494 0.03984837 0.045303524
000190 f1 42 7c 3c f9 df 5d bd 6f 58 2a 3d e6 25 cb 3c
       0.015396819 -0.054168675 0.041588243 0.024798345
0001a0 86 ed 2e 3d a2 c4 4c 3d 47 a8 9f 3b d6 94 20 3c
       0.04270699 0.04999221 0.004872355 0.00980111
0001b0 7d 18 23 3b af 1e 9f 3d f5 76 6b 3d c0 72 30 3d
       0.0024886422 0.07769524 0.057486493 0.043078184
0001c0 9e 9b 49 3d 94 74 55 3d 04 d2 94 3c 56 bd 09 3d
       0.049220674 0.05211313 0.01816655 0.03362783
0001d0 e9 b5 08 bd 0f 1c 75 3d e0 0d bc 3c 86 d2 a9 3c
       -0.033376608 0.059841212 0.022955835 0.020730268
0001e0 82 8b 09 3d 2c 4b d1 3c db 65 1b bd 84 69 5d 3d
       0.03358031 0.02554854 -0.037938934 0.054055706
0001f0 09 e1 1b 3d be 5e 24 bb ae 15 2f 3d 9d 6c 86 3d
       0.038056407 -0.0025080885 0.042745285 0.06563685

layer2.weight f4 [128, 128]
000000 a5 d6 c8 3b 65 4c d7 bc c0 41 4f 3d e4 10 36 3d
       0.0061291032 -0.026281545 0.050599813 0.044449702
000010 22 56 30 bd 01 24 8e 3c c9 70 f4 3d 0a b5 58 3d
       -0.043050893 0.017351152 0.119355746 0.052907027
000020 8d 6a 2b 3d 8b d0 28 3d 39 30 a7 3d 81 90 ff bd
       0.04184966 0.041214507 0.081634946 -0.12478734
000030 d7 a1 59 3d cb 9b c2 39 04 17 35 39 18 ae b9 3d
       0.053132858 0.00037118638 0.00017270079 0.09066409
000040 24 1a 2f bd 52 de eb bd 9b 92 84 bd af d7 ae 3d
       -0.04274954 -0.115170136 -0.06473275 0.08537232
000050 6f f7 03 3d 66 19 06 3d 1e 15 1b 3d 2b a0 a9 3d
       0.032218393 0.032739066 0.037861936 0.08282503
000060 b8 a3 e3 bd 2f 7d b2 3d 3d 12 d2 3a 1c 47 89 3c
       -0.11115211 0.08715283 0.0016027164 0.01675754
000070 29 97 8d 3d 48 13 bf 3c 9d 00 ac 3d d1 39 80 bd
       0.06913597 0.023324624 0.083985545 -0.062610276
000080 43 6f 4f 3d db bc 81 3b 8d 6f 3b 3d 34 49 ef bd
       0.050643217 0.003959281 0.04576068 -0.11683884
000090 6d 90 96 3d 65 64 e9 3d e2 27 a9 bd 45 47 3a bd
       0.07351766 0.11396102 -0.0825956 -0.045478124
0000a0 74 be 98 3d 9f 99 e9 bd 95 7a 6b 3d 4a 61 b6 bd
       0.07458201 -0.11406254 0.05748995 -0.08905275
0000b0 85 5a a7 3d a8 59 54 bd 05 da 05 3d 9e cd 2f 3c
       0.08171562 -0.051843315 0.032678623 0.010730175
0000c0 c8 01 82 bd 71 f9 9e bc 79 75 d8 3d ac da 09 3d
       -0.06347996 -0.019406052 0.10569281 0.033655807
0000d0 60 42 90 3c a0 25 93 3d 1b 5e 00 3d 74 06 f2 bd
       0.017609775 0.07184911 0.031339746 -0.11817637
0000e0 ae b2 ed 3d f4 54 d4 bc e6 57 f7 3c 3d 7a 1c bd
       0.11606346 -0.025919415 0.03019328 -0.038202513
0000f0 bb 41 db 3c 8f 02 c2 bd 2c 87 10 3d 41 49 eb bd
       0.026764741 -0.09473144 0.03528516 -0.114885814
000100 65 39 2d 3d c9 69 0d 3d 3f e4 d8 3b f2 a3 0b bd
       0.042291064 0.034524713 0.006619006 -0.034091897
000110 47 ec 8d bd 07 ce db 3d 08 e7 91 3d 0e 0a 8d bb
       -0.06929832 0.10732656 0.07124144 -0.004304177
000120 f3 2e 23 3c 23 a3 c6 3c 70 82 e2 bd 11 01 6c bd
       0.009959924 0.024247712 -0.11060035 -0.057618205
000130 3f 44 d8 3d 65 10 c8 bd 9c 9d ac bc 51 f6 f5 bd
       0.10559892 -0.09768752 -0.021071248 -0.12009872
000140 f2 43 aa 3d 5d 24 71 bd e3 e0 37 3d d6 82 0c 3c
       0.08313741 -0.05887257 0.044892203 0.008576116
000150 09 41 d3 3c 89 b8 f5 bd 7a 28 c9 3d 8d 2f 25 bd
       0.025787847 -0.11998088 0.098221734 -0.04032855
000160 8f 3d ac 3a 19 3b a2 3d fe fd 16 bd f7 b4 6a bd
       0.0013140904 0.07921428 -0.03686332 -0.057301488
000170 7e 51 8f 3c c9 dd b4 3d 93 b1 80 bb b2 8f c1 bd
       0.017494913 0.08831365 -0.0039274185 -0.09451236
000180 e3 f1 8c 3c 33 21 0e bd b3 94 04 3e 76 2d 58 bd
       0.017205184 -0.03469963 0.12947349 -0.05277773
000190 7e 38 95 bd 4c 4b 7f bd 4f fa 40 bc 26 09 25 bd
       -0.07286166 -0.062327668 -0.011778428 -0.040291928
0001a0 0a 30 fd 3c 33 8b 82 3d 38 cf a2 3b f2 80 61 bd
       0.030906696 0.063742064 0.00496855 -0.055054612
0001b0 08 03 15 3c be dd 8c 3c 1f b3 8c 3b 8d 15 8a 3d
       0.009094961 0.017195579 0.004293814 0.06742392
0001c0 ce f4 a2 3d 56 53 9c 3c da 50 5a 3d 14 b7 77 bd
       0.07956849 0.019082706 0.053299762 -0.06047733
0001d0 74 5e 93 bd f9 50 d8 bd e5 e5 67 bc 22 23 76 3d
       -0.0719575 -0.10562319 -0.014153932 0.0600921
0001e0 7b 38 7b 3d 83 86 76 bd 9a fd 47 3d 32 1e ab bc
       0.06133316 -0.060186874 0.048825838 -0.020888422
0001f0 56 a7 91 bc 73 5a 81 3c 0f 3c ab 3c 63 cd 9f bc
       -0.017779987 0.0157902 0.020902662 -0.019507116
000200 88 7c cd 3b d4 8a 6b 3d 39 4d 51 bd 26 d4 d2 3c
       0.006270949 0.057505444 -0.051099036 0.025735926
000210 7a 35 04 bd 79 ca 83 3d e5 f7 dd bc 61 fd b9 3d
       -0.03227756 0.06435103 -0.027095744 0.09081531
000220 cc a5 b3 bd c8 96 ed bc 85 db a9 bd 4e cb 51 3d
       -0.087718576 -0.029002562 -0.08293823 0.051219277
000230 03 53 19 3d d4 83 08 3d 74 df d4 3a ef 66 92 bd
       0.03743268 0.033328846 0.0016240911 -0.07148539
000240 db 6c 38 3d 93 91 45 3b 5c fa 6a bb f4 04 c0 3c
       0.045025688 0.0030146583 -0.0035854792 0.023439862
000250 74 0d 0f 3b 9a d0 08 bd 90 21 01 bc 54 5b b2 bd
       0.0021828087 -0.033402063 -0.007881537 -0.08708826
000260 a6 6c 9b bc bb cc 33 bd d8 1a 2d bd f6 c3 11 3c
       -0.018972706 -0.043896418 -0.04226193 0.008896818
000270 34 7c 86 bc b4 9e 84 3d 1a 01 95 3d 34 a0 c4 3b
       -0.016416647 0.06475583 0.07275601 0.006000543
000280 03 03 c7 3c 24 bf 71 3d 04 69 97 bc 05 a6 50 3d
       0.024293428 0.059020177 -0.018482693 0.05093958
000290 e4 86 3f 3d d2 02 92 3d 4a 3c 93 3d af 07 08 bc
       0.0467595 0.07129444 0.071892336 -0.008302613
0002a0 f5 f9 61 bc 84 af 96 3c 73 d8 23 bd 65 0e f0 3c
       -0.013792505 0.01839424 -0.040001344 0.029303739
0002b0 cc af 74 bc 91 27 72 bd 60 db 7a bd 35 89 b1 bd
       -0.014934491 -0.059119765 -0.06124437 -0.08668748
0002c0 8e 53 96 3d b1 c3 76 bd 15 38 9f 3c 66 b7 33 3d
       0.073401555 -0.06024522 0.019435922 0.043876074
0002d0 d9 78 1a bc e8 84 cc bd 57 e9 8d 3d 9a b4 88 3d
       -0.009428226 -0.09986287 0.06929272 0.06675072
0002e0 b2 2f 9f 3d 15 c2 93 3d bf 8f 87 3d 86 6e 29 3b
       0.07772769 0.072147526 0.06619214 0.002585323
0002f0 69 91 8b bd 9b dc 7e 3d 3e 56 6d bb 7c 5c d6 bc
       -0.06814844 0.062222105 -0.0036214734 -0.026167147
000300 a6 f3 89 bd db 60 f5 bc 97 77 c5 bd 3f 67 b4 bc
       -0.067359254 -0.02995341 -0.096419506 -0.022021888
000310 68 54 6a 3d 60 91 66 3c 94 b7 d3 bd d9 42 be 3c
       0.057209402 0.014072746 -0.10337749 0.023225235
000320 84 ff b2 bd d7 72 cc bd 1d 00 84 bd a4 15 09 3c
       -0.08740142 -0.099828415 -0.06445334 0.008366976
000330 79 98 8a bd ab da d0 bc 4a 59 89 bc ad b3 94 3d
       -0.06767363 -0.025494894 -0.01676621 0.07260833
000340 aa b0 59 bd b9 6f f1 3c be 4b 7d 3d 71 23 88 3d
       -0.053146996 0.029472219 0.06183981 0.06647385
000350 1a b1 86 bd c5 0c 83 3b c4 ff 86 bd 32 bd 03 3d
       -0.06576748 0.003999325 -0.06591752 0.032162853
000360 86 af 89 3d 1c 45 a1 bd d7 57 d5 3c 32 57 78 bd
       0.067229316 -0.0787451 0.026042862 -0.06063003
000370 a0 3f da bc db 5e 0d 3d a4 be 22 3d 0f 96 9f bd
       -0.026641667 0.03451429 0.03973259 -0.07792293
000380 f9 f5 4f bd 46 77 ff bc 44 9f 96 3c 1b 94 a7 3d
       -0.050771687 -0.031184804 0.01838649 0.08182546
000390 3f 18 9a 3d f9 61 c6 bd ca 6f d2 3c c2 f6 6e bd
       0.07524156 -0.096866556 0.02568807 -0.058340795
0003a0 95 2a 73 bd b2 35 6a bc c4 05 74 bd e1 06 55 bd
       -0.05936678 -0.0142950285 -0.05957581 -0.052008513
0003b0 db f3 a6 bd 9e 04 d2 3b ad 3c 8e bd 1e 81 3e 3c
       -0.081519805 0.006409242 -0.06945167 0.011627464
0003c0 97 2e c1 bd ce 24 ad 3c 81 90 b7 3c c5 5d 11 bd
       -0.094327144 0.021135714 0.022407772 -0.035489816
0003d0 b5 1f 5a bd 07 77 85 bd dc bf 9d bc 79 16 4a bd
       -0.053252894 -0.06516843 -0.019256525 -0.049337838
0003e0 27 60 15 bd ad 29 0d bd 52 83 7e bd ce 11 5f bd
       -0.03646865 -0.034463573 -0.062136956 -0.05446034
0003f0 e8 ea 96 3d e2 d6 4d bd b5 ed 80 3d af 6d 45 bd
       0.073690236 -0.050253756 0.06295339 -0.048200306

layer2.bias f4 [128]
000000 58 65 6b 3d 7c e1 18 bc 57 e4 af bc 1d fc ac bd
       0.057469696 -0.009331103 -0.021471186 -0.08446524
000010 df f6 47 3d 0d 66 22 3d c9 c4 0f bd 31 47 c1 3c
       0.04881942 0.039648104 -0.03509978 0.023593517
000020 fd 10 3d bb 1f 7d 61 3d 21 34 4e 3d 23 a2 79 3d
       -0.0028849237 0.055050965 0.050342683 0.06094564
000030 51 37 03 3c 5b a0 e6 3d 6e ac d0 ba 53 57 c6 3d
       0.008008794 0.11261054 -0.0015920529 0.096846245
000040 9b ab 10 3d 73 d9 86 3d 26 80 83 bb 2f 84 07 bc
       0.035319906 0.06584444 -0.004013079 -0.008271261
000050 3b 52 b7 3d d4 67 48 3c e7 2b 06 3e c9 92 38 bd
       0.08951231 0.012231786 0.13102685 -0.04506186
000060 d0 9e 3c 3d db a5 6d 3d 14 5f 80 bc 8a dd 28 3d
       0.046049893 0.0580195 -0.015670337 0.0412269
000070 76 9d 66 3d 4d 2e 5d 3d a0 06 34 bc 01 a0 60 bd
       0.05630251 0.053999234 -0.010987908 -0.05484009
000080 5e 8b 84 bd 01 87 4b 3d c4 a8 86 3d 3f 37 18 3d
       -0.06471895 0.049689297 0.06575158 0.03716206
000090 1d 0a 2d bd 18 8a 85 3d 80 9e e3 ba 48 1f d4 3b
       -0.042245973 0.0652048 -0.0017365962 0.0064734556
0000a0 20 cb b3 3d bc e5 3b bd ae 78 56 3d 30 34 8d bc
       0.087789774 -0.04587339 0.052361183 -0.017236799
0000b0 c4 0b 5d 3d d7 5e b5 bd c5 3b 5c 3d 5d dc a7 3d
       0.0539663 -0.0885598 0.05376794 0.08196328
0000c0 d0 d9 93 bd 83 1d 15 bd e6 4c d5 3d ff 88 a0 bc
       -0.07219279 -0.036405098 0.10415058 -0.019596575
0000d0 46 b4 97 3c b0 72 c5 3d d6 cf 1d bd 40 4d fc bc
       0.018518578 0.096410155 -0.038528286 -0.030798554
0000e0 a5 3c 86 bc c1 7c 17 3d 7e df f2 3d ea 7f 25 3d
       -0.01638634 0.03698421 0.11859034 0.04040519
0000f0 e4 61 93 bd 5c 61 c8 3d 32 3b 1d bd 86 6d aa 3d
       -0.071964055 0.09784195 -0.03838653 0.08321671
000100 8d 22 08 3d 3b e6 32 3d 17 07 55 3c 7a 1c 9c 3d
       0.033236075 0.043676596 0.013002179 0.07622619
000110 33 43 15 bd f3 2d af 3b 95 ec 9c 3d 0d 29 4b 3d
       -0.03644104 0.0053460537 0.07662312 0.049599696
000120 77 b3 df 3d 21 04 8d bd d3 58 54 bd 77 09 8c 3d
       0.10922902 -0.06885553 -0.051842522 0.06837743
000130 00 c7 96 3d dc 14 eb 3d f3 73 ee bc 78 6b 07 bd
       0.07362175 0.11478588 -0.029108023 -0.033061475
000140 fd 67 a2 3c 56 ea 58 3d ce 24 96 bd cf 44 a3 bd
       0.019824976 0.052957855 -0.07331239 -0.079721086
000150 cd 94 96 bc 9c b7 4c bd 85 d4 ef bc 53 2e ed 3c
       -0.0183815 -0.04997979 -0.029276142 0.028952753
000160 8e 7b e8 bc ad ab bc bc 65 32 80 3c 8e 4b fa bc
       -0.028379228 -0.02303108 0.01564903 -0.030553605
000170 e6 90 9a 3d 82 15 b7 bc 23 68 88 3d 49 34 bf bd
       0.075471684 -0.022349123 0.066604875 -0.093361445
000180 16 df b1 3c 68 14 c9 3d 43 b1 1a bd 91 a1 02 bc
       0.021712821 0.09818345 -0.037766706 -0.007973091
000190 56 6a c6 bb da a1 9a bd 62 a6 be 3c d8 0d 4b 3d
       -0.0060551567 -0.07550402 0.023272697 0.04957375
0001a0 d7 63 fa 3b 17 89 dd bc 80 2f 08 bd ec d7 40 3d
       0.0076412964 -0.027042909 -0.033248425 0.04708092
0001b0 f4 39 45 bd 99 b9 d5 3d 25 f4 d4 bd bb a3 87 3d
       -0.04815097 0.104357906 -0.103981294 0.06623026
0001c0 0d 8a 89 3d b5 19 b5 3d ab 37 f9 bb 73 1a 88 bc
       0.06715784 0.08842794 -0.007605513 -0.016614174
0001d0 9a 0c ac 3d 6a 82 99 3a 1a 8b 82 bd 31 0f 0e 3d
       0.08400841 0.001171184 -0.06374188 0.034682456
0001e0 c5 7e f9 3d e4 09 7c bd 12 55 e7 bb 39 49 39 3b
       0.121823825 -0.06153287 -0.0070597017 0.0028272404
0001f0 1c 3b 2a 3c c9 cb 8f 3d 14 09 d0 3d 86 90 b2 3d
       0.010390069 0.07021291 0.101579815 0.08718972

layer3.weight f4 [128, 128]
000000 81 c6 66 3d c3 ad 7d bd a9 86 46 bd 5e 20 28 bd
       0.05634165 -0.06193329 -0.048468266 -0.041046493
000010 7a 3c 10 3d a4 ff aa bd cf f5 55 bd 2c 51 89 3c
       0.035213925 -0.08349541 -0.052236374 0.016762339
000020 36 1e c0 3d 41 3d 1b bd e8 69 35 3c 01 57 62 bd
       0.09380762 -0.037900213 0.011072613 -0.055258755
000030 f7 c2 c3 bd e0 7d 7c bd 22 71 a8 3d 46 8a 0d 3d
       -0.09558671 -0.06164348 0.08224703 0.034555696
000040 2c 51 a2 3d c6 92 ba bd 7e 98 73 bd 77 1d 80 bd
       0.079256386 -0.09110026 -0.0594716 -0.0625562
000050 0f 31 c2 3c 70 2e 51 bc 01 f6 e5 bd f7 24 d9 3c
       0.023705034 -0.012767419 -0.11228562 0.026506884
000060 9e ae 61 bd 4c 52 5a bd d0 7c dd bc 72 76 76 3d
       -0.05509817 -0.05330114 -0.027037054 0.060171552
000070 12 ae 3b bd 41 cc 99 bd d0 d0 5e bc 63 4c a0 3d
       -0.045820303 -0.075096615 -0.0135995895 0.078270696
000080 19 82 3e bd 05 8b 97 3d 81 2e 8a 3d d3 63 4c 3d
       -0.04651079 0.07399563 0.06747151 0.049899887
000090 bc 96 06 bd b5 76 39 3d 8e 5e 26 3c b8 b3 a9 3c
       -0.032858595 0.045279223 0.0101543795 0.02071558
0000a0 05 16 30 3d 06 20 e4 3d 13 95 08 bd a8 99 33 3c
       0.04298975 0.111389205 -0.033345293 0.0109619275
0000b0 8f ac 7f 3d 6a 56 a7 bc 13 99 1c bc 6e 16 1c bd
       0.062420424 -0.020426948 -0.00955798 -0.038107328
0000c0 ca ce df 3c 98 c0 c1 bd 4b b0 16 bd d9 8b 55 3d
       0.027320284 -0.094605625 -0.03678922 0.052135322
0000d0 e8 40 98 bc c2 39 09 bc c8 8e 86 3b ed 98 11 bd
       -0.018585637 -0.008375587 0.0041063763 -0.035546232
0000e0 cc d5 f9 bb 85 c9 97 3c 11 b1 ce bd 46 8b 8e 3d
       -0.0076243635 0.01852871 -0.100923665 0.06960158
0000f0 7a 3b cf 3d bf 87 5b 3d ac b7 3e bc d6 86 d5 3d
       0.10118766 0.053596254 -0.0116404705 0.104261085
000100 0f 95 b7 bd 2b fc bd bd 26 fc e8 bc 19 bb 40 bc
       -0.089639775 -0.09276613 -0.028440546 -0.011763358
000110 27 73 3b bb ac e2 c2 3a f7 e7 ea 3c a9 0e 57 bd
       -0.0028602572 0.0014868579 0.028675063 -0.052504215
000120 a1 93 d1 3c 47 7a ae 3c 8d 3c bd bc 7d d9 85 3d
       0.02558309 0.02129854 -0.023100162 0.06535623
000130 c3 71 14 bd 1c 47 88 3c 21 1d 5c bd f0 e5 35 3d
       -0.036241304 0.01663547 -0.053738717 0.04440874
000140 11 9c 82 3d ab 52 c3 3d 2f 65 50 bd 2b 0f b2 bd
       0.063774236 0.09537252 -0.050877746 -0.08694299
000150 68 20 54 3d 41 c9 80 3d 1e 7c db 3b 18 3d 9c bd
       0.051788718 0.06288386 0.0066981455 -0.0762884
000160 23 e9 f3 39 5e e0 a8 bd 70 f7 90 bd 3f 29 95 3c
       0.00046522272 -0.0824592 -0.07078445 0.018208144
000170 3a 42 59 3c c1 c0 48 3b c1 45 fa 3c 51 c5 31 3b
       0.013260419 0.0030632468 0.03055084 0.0027125666
000180 6b 2a 8c bc 14 1a dc bd 54 ad c3 3c 86 26 24 bd
       -0.01711007 -0.107471615 0.02388636 -0.0400758
000190 48 0b 9d 3c ae 31 8f ba 79 f3 86 3d 88 ab a6 3d
       0.019170418 -0.001092484 0.065894075 0.08138186
0001a0 f9 83 14 bb 9d 5e bb 3d a4 d6 1c 3d c5 cb 2b bc
       -0.002266167 0.091489054 0.038290635 -0.010485594
0001b0 37 97 d8 3c 22 64 b6 3c 1b ec 8c 3d c5 0a 4c 3d
       0.026439292 0.022264544 0.06880971 0.049814958
0001c0 2e 64 9e bd c7 47 44 bd 4a b2 49 3d 68 3f 88 3d
       -0.077339515 -0.047920015 0.049242295 0.06652719
0001d0 98 00 49 3b c1 6d e9 bc 7e 4a 4c bd 70 45 dd 3d
       0.003067052 -0.028494718 -0.04987573 0.1080426
0001e0 03 11 f6 bd ba 37 15 3c 44 9a 7f 3d 24 80 ba 3d
       -0.120149635 0.0091075245 0.06240298 0.09106472
0001f0 d1 91 ab bd 1c 1e 5a 3d f2 f4 96 bc cd 36 67 3d
       -0.08377422 0.05325137 -0.018427346 0.056448746
000200 82 ec 07 3c 7b a3 17 3d a2 06 2d 3d e2 99 4a 3d
       0.008296134 0.03702114 0.042242654 0.04946316
000210 cc ac 01 bd b0 c6 b6 bd b3 74 0b 3a f6 aa 7f bd
       -0.031658933 -0.089246154 0.0005319819 -0.0624189
000220 e6 af ed 3d d2 62 6c 3c a3 e4 3e bd cc e5 9a bd
       0.116058156 0.0144278575 -0.046604764 -0.075633615
000230 66 65 d0 3d a3 95 24 3d a2 04 5a bc c6 07 70 3c
       0.1017559 0.040181767 -0.013306769 0.014650291
000240 eb 88 82 3d 28 70 7a 3d e8 1c a8 bc 8f 14 b7 3c
       0.06373771 0.061142117 -0.020521596 0.02234867
000250 ad 8c 1f bc b1 23 c7 3c 47 59 80 bd 81 4c 4b bd
       -0.00973813 0.024309011 -0.06267028 -0.049633507
000260 6a 56 89 3b e7 2d 79 bd 8c 7b c2 3c e6 a2 17 3d
       0.0041912096 -0.06083479 0.023740552 0.037020586
000270 eb 96 3d ba 99 72 a7 3d 2d db 9b bb 7b 67 b6 bd
       -0.00072322664 0.08176155 -0.0047563524 -0.08906456
000280 77 15 aa 3d 6f d4 c3 bc c0 e2 a8 3d 25 1c 9c bc
       0.08304875 -0.023905007 0.08246374 -0.01905639
000290 01 a3 37 3d f7 e8 0b bd f3 e9 5e bd cc b4 78 bd
       0.044833187 -0.03415772 -0.05442233 -0.060719296
0002a0 de 40 f4 bb 64 57 bd 3d de 92 ee bd 25 79 8d bb
       -0.007454022 0.09245184 -0.116491064 -0.00431742
0002b0 f3 5a 1a bd b8 d5 12 3d bd ee c7 bc 15 49 c6 3d
       -0.037684392 0.03584835 -0.024405831 0.09681908
0002c0 4b bd 99 3d f3 8e 32 3c d6 b0 86 bd ac 8a 25 bd
       0.07506808 0.01089834 -0.065766975 -0.04041545
0002d0 6a c7 91 3d bb ac 9f 3b d1 0e 22 3b a2 76 ab bc
       0.07118113 0.004872886 0.002472807 -0.020930592
0002e0 88 66 af bc d1 d2 ee 3c 7a a2 96 3c af 1d 8f bd
       -0.021411195 0.02915326 0.018388022 -0.069880836
0002f0 d4 41 d5 bc b9 77 dd 3d 33 33 2e 3d d5 77 ce bc
       -0.026032366 0.10813851 0.042529296 -0.025203625
000300 51 20 bd 3b 74 08 f2 bd a3 bf 7a 3c c9 6e 70 3d
       0.0057716747 -0.118180186 0.015304479 0.058699403
000310 14 d6 53 3c 58 49 a0 bd 05 76 4e 3c 74 99 9c bd
       0.012929458 -0.07826489 0.01260138 -0.07646456
000320 a9 10 09 bc d2 2f cd 3d c5 a7 ee 3d 75 a6 80 3d
       -0.0083657885 0.100188866 0.11653093 0.06281749
000330 66 b1 d1 bd 64 c1 1c bd 85 af d5 3c 05 ff 04 3d
       -0.10238914 -0.03827037 0.02608467 0.032469768
000340 4f bf 8e bc 88 21 c3 3c 30 12 05 bd c5 fc 02 3d
       -0.017425207 0.0238197 -0.032488048 0.03197934
000350 3e 85 a4 3d 98 d6 81 3d 90 65 6c 3d 6c 30 88 3d
       0.080332264 0.06339759 0.057714045 0.06649861
000360 16 87 d6 bd 02 20 85 bd 0d 9e 74 3d 45 dd 2f 3d
       -0.10474984 -0.06500246 0.05972104 0.04293563
000370 a0 ce 27 bd 4b 53 f2 3c 8a eb e2 3c 57 07 a1 bd
       -0.040968537 0.029580733 0.027700204 -0.07862728
000380 bb 0c e2 3d f3 2f cc 3b 05 ea b5 bc 91 de f5 bc
       0.110375844 0.006231302 -0.022206316 -0.030013354
000390 4a a5 bf bd a7 3a 96 3d 85 04 74 3d 81 ff b3 3d
       -0.09357698 0.07335406 0.059574623 0.08788968
0003a0 01 86 84 3d cf 23 8f 3d 47 c1 60 3c b7 cc 11 3d
       0.06470872 0.06989252 0.013717956 0.035595622
0003b0 45 87 c1 3d 8b 48 c4 bc 93 1a 77 3d 07 c2 99 bd
       0.09449629 -0.023960372 0.060328078 -0.07507711
0003c0 3b aa 4e 3d 28 a1 2d 3d cc a7 eb 3c 45 c2 3b bd
       0.050455313 0.04239002 0.028766535 -0.045839567
0003d0 23 36 8e 3d d3 96 03 3d bb ef 83 3d 31 05 f9 bc
       0.069439195 0.03212626 0.06442209 -0.030397983
0003e0 83 2e d8 bb 92 18 a5 3c 2c ec 87 bd e1 b4 c3 3d
       -0.0065973415 0.020153318 -0.06636843 0.09555984
0003f0 7a f7 a1 3c fd ea ca 3d 66 4f 42 3c 4b de b8 bc
       0.019771326 0.09908102 0.01185975 -0.022566935

layer3.bias f4 [128]
000000 c8 54 62 3d 96 f1 8c 3d 88 ff f5 3c 0c 11 88 3d
       0.055256635 0.06882016 0.030029073 0.066438764
000010 59 8f 91 3d db e5 e2 3d 8d 99 b5 3d dc 6d 0c 3d
       0.071074195 0.11078998 0.08867178 0.034284458
000020 d4 4b 4f bc db a1 7d 3c ab 29 75 3d 10 f8 0e 3c
       -0.012652356 0.015480484 0.05985419 0.008726135
000030 0f 55 4b 3d 9b 01 14 bd cb 2a 73 3d 0d f7 01 bd
       0.049641665 -0.036134344 0.059366982 -0.031729747
000040 1d 8c b6 3b 02 1a 8b 3d 3e c7 c0 3d c9 ca 1e bd
       0.005570902 0.0679207 0.094130024 -0.03876761
000050 33 07 a8 3d e3 4b 71 3d fa 22 77 3b 7f f4 44 bd
       0.08204498 0.05891026 0.0037710057 -0.048084732
000060 06 c6 ce bd 85 d8 42 3d 6c 98 b8 bd 97 52 87 bd
       -0.10096364 0.04756977 -0.09013447 -0.0660755
000070 d6 66 b9 bc ad 8d 57 3d 82 79 df bc fa c8 c4 3d
       -0.022632044 0.052625347 -0.02727962 0.09608646
000080 c5 02 91 bc cd 86 4e bd 56 b5 18 3d cc 32 53 bb
       -0.017701516 -0.050421525 0.03728231 -0.0032226322
000090 80 1a 44 bd 2f 93 87 3d 3a 68 e9 3d 31 28 c3 3c
       -0.047876835 0.0661987 0.11396833 0.023822876
0000a0 0b a9 b1 bd 44 16 95 3b 62 6a ae 3c 8a 0f 78 bd
       -0.086748205 0.0045497734 0.021290962 -0.060561694
0000b0 d5 47 30 3d 38 71 dd 3d 9f 6d ff bc c5 f1 c1 3c
       0.043037254 0.108126104 -0.031180201 0.023674855
0000c0 04 60 64 3d 13 6c d5 bc 90 2f 52 3c ed 1c f8 bc
       0.05575563 -0.02605251 0.012828723 -0.03028723
0000d0 f5 f2 6c bd 76 60 a1 3d 56 3a 60 bd bf 95 f1 3c
       -0.05784889 0.078797266 -0.054743133 0.02949035
0000e0 7b 61 8b 3d 01 67 cf ba de ae 46 bb c8 36 da 3d
       0.06805702 -0.0015823544 -0.0030316631 0.1065498
0000f0 5d 51 6b bd 59 df 33 bd 0b a1 94 bc 1d dc bb bd
       -0.05745064 -0.043914173 -0.018143198 -0.09172843
000100 09 8b 00 3e 58 0f a1 bd 21 89 64 bb 65 50 90 3d
       0.12553038 -0.07864255 -0.0034871774 0.07046584
000110 2b 0f 9a bb ce e3 a6 bd 2a 6b 1d 3a 83 a6 48 3d
       -0.004701515 -0.08148919 0.00060050434 0.048986923
000120 3e 41 a5 3d 48 78 98 3b dd a0 21 3d d5 b6 72 3d
       0.080690846 0.0046530105 0.03946005 0.059256393
000130 cb 08 fa bc 07 1c 01 3e d6 53 9c 3d 30 58 3c 3d
       -0.030521771 0.12608348 0.07633178 0.04598254
000140 6c 76 d8 3d e6 90 0f bb a2 84 2d bd f6 d2 c3 3c
       0.10569462 -0.0021906435 -0.042362817 0.023904305
000150 db d7 9c 3d 53 a7 2b ba 93 0a a6 bc 18 d9 1b bd
       0.07658359 -0.00065480656 -0.020268714 -0.038048834
000160 43 3b d6 3d f2 f7 d3 3d 3a 55 79 bd cb 5f f5 bc
       0.10460522 0.10350026 -0.060872294 -0.029952904
000170 5c 6e 8a bd 4f 7f b3 3d 43 af 8f bc 4f 36 df 3d
       -0.06759331 0.087645166 -0.017539626 0.108990304
000180 89 89 25 bb 2f f3 d5 3d e2 e3 2c 3d ee 90 50 3d
       -0.002525898 0.10446774 0.042209513 0.050919466
000190 2a 1f af bd b0 7c eb 3d ee a1 92 3c 6e 5d ad 3c
       -0.08550866 0.11498392 0.01789948 0.021162715
0001a0 c3 11 52 bd 44 21 53 3d cc b5 01 bd 78 1d ae 3d
       -0.05128647 0.051545396 -0.031667516 0.085017145
0001b0 76 ba 4c bb 13 03 55 bd 33 55 b6 3d bc 88 83 bd
       -0.003123907 -0.052004885 0.08902969 -0.064225644
0001c0 3c f2 d0 bc 7c a7 8f 3d b9 a3 48 3d f4 0b e2 3c
       -0.025506131 0.07014367 0.048984263 0.02759359
0001d0 8f 1b 7c 3d 4a 64 61 bc d0 98 1d bd 9a 87 c2 3d
       0.06154972 -0.013756821 -0.03847581 0.0949852
0001e0 c7 d0 08 3d 91 22 08 bd 88 95 99 3d 06 4a 95 bd
       0.03340223 -0.03323609 0.07499224 -0.072895095
0001f0 58 a3 f4 3d 53 00 3a 39 05 a4 77 bd 64 53 e3 3a
       0.11945218 0.00017738463 -0.060459156 0.0017343578

layer4.weight f4 [10, 128]
000000 f3 e4 fb bc 9f af af bd 87 53 cd 3d 98 36 80 3d
       -0.03074882 -0.08578419 0.10025697 0.06260413
000010 e0 eb 7d 3d 53 7d 42 bd 39 59 dc bd 21 b3 ef bd
       0.061992526 -0.0474828 -0.10759205 -0.11704088
000020 a8 49 5e bd 52 ff 8e 3d ff 69 89 3d c1 6a c4 bd
       -0.054269463 0.06982292 0.0670967 -0.09590674
000030 85 29 d6 3d 5d f7 a1 3d 38 c5 7a bd 52 49 fb bb
       0.10457138 0.07908509 -0.06122324 -0.0076686526
000040 cf 58 df bd 11 90 38 bd ed f1 67 3c f8 79 a1 3c
       -0.10905611 -0.045059267 0.014156801 0.01971148
000050 59 04 a8 bd 5a d4 90 3d 1a 8e 4e 3c 15 c6 47 bc
       -0.08203954 0.07071753 0.012607122 -0.0121932225
000060 cc 6c 0e 3c 71 2a 61 3d f5 40 fa 3c 11 db 83 3b
       0.008692931 0.054972116 0.030548552 0.0040239175
000070 ff 18 4d 3d d7 a9 e9 bd 48 2a 29 bd 8e 8c 84 bc
       0.050072666 -0.114093475 -0.04130009 -0.016180303
000080 8c c1 d8 bd fe ff 7c 3d a1 98 a7 3d e5 40 74 bd
       -0.10583791 0.06176757 0.081834085 -0.0596322
000090 2c 37 d3 bd ac b4 c0 bd da 5e 97 3d 47 ab 35 3d
       -0.103132576 -0.094094604 0.073911384 0.044352796
0000a0 93 27 22 3d bc dc 6d bd f2 4c c8 bd be 49 06 bd
       0.039588522 -0.058071837 -0.09780301 -0.03278517
0000b0 59 99 c9 bd 41 4f c4 3d 0a cf 39 3d ad 4d 8d 3d
       -0.09843702 0.09585429 0.045363463 0.06899581
0000c0 49 23 01 be a0 4f f6 bd d1 cf a6 bd 9d e2 d4 bd
       -0.12611116 -0.12026906 -0.081451066 -0.103947856
0000d0 4c 27 fe 3c fd c8 c2 bd 40 7d 78 3d 0d a7 f5 b8
       0.031024598 -0.09510992 0.060666323 -0.00011713626
0000e0 4a 88 e6 bb 83 a6 8c bb 23 e9 54 3d c0 46 a2 bd
       -0.00703529 -0.0042923107 0.05198015 -0.07923651
0000f0 9d d9 e6 bd 2a 50 b1 bc 65 d3 6b bd 26 64 08 3d
       -0.11271975 -0.02164467 -0.05757465 0.033298634
000100 ae 54 03 bd d7 ea cf bd ae b0 34 bd 33 ea bc bd
       -0.03206318 -0.10152214 -0.044113807 -0.092243575
000110 5b ae e4 3c cc ea 8c bc b5 e3 f3 bd 2f 47 11 3b
       0.02791517 -0.017201804 -0.11908666 0.0022167673
000120 a1 5b f3 bd 76 15 da 3c 55 07 b8 3d 45 ec 2f bd
       -0.11882711 0.026621561 0.089857735 -0.042949934
000130 77 39 60 3d 85 ff cd 3a 33 c5 6a 3d 38 dc d4 bd
       0.054742303 0.001571641 0.05731697 -0.10393566
000140 74 24 87 3d 2c b7 08 bd 27 95 af 3d 37 d2 15 bc
       0.0659875 -0.03337781 0.085733704 -0.009144357
000150 5f c5 ce bd 33 3f 5e 3c 73 c6 71 3d d9 72 5a 3d
       -0.10096239 0.013564873 0.059027147 0.053332184
000160 ce c9 a7 3d 72 3e b8 bd 9f 52 d4 3c ac 91 b2 3d
       0.08192788 -0.089962855 0.025918303 0.08719191
000170 72 a2 39 bc 2e 7c 9f 3c bd b6 89 bd c1 94 90 3d
       -0.011330234 0.019468393 -0.06724308 0.070596226
000180 8b e8 ec bd f3 ae 19 3d cb 58 58 3d e5 34 dd bd
       -0.115677916 0.03752036 0.052819055 -0.108011045
000190 52 03 d6 bb 70 5c a8 3c 5a c7 d3 bc 1b de d4 3d
       -0.0065311575 0.02055189 -0.025851894 0.10393926
0001a0 e4 43 36 bd 59 49 84 3d 5e 9a ee bd f3 b2 7c 3d
       -0.04449834 0.064593025 -0.11650537 0.061694097
0001b0 0f 8a 19 3c 4c 29 03 3d 05 b5 fd bd 8a 79 e2 3d
       0.009371295 0.032021806 -0.12388042 0.11058338
0001c0 2b 20 e0 3d 80 25 95 bd 0a a9 90 3d e1 9b a2 3d
       0.109436356 -0.07282543 0.07063492 0.07939888
0001d0 6b 30 ad 3d 68 ed c0 3d a9 55 99 3d d5 7e e9 3d
       0.084565006 0.09420282 0.074870415 0.114011444
0001e0 88 b2 9c 3d ba 71 e4 bd df ee 57 bd a2 24 fd bc
       0.0765124 -0.11154504 -0.05271804 -0.030901257
0001f0 44 00 ad 3d e6 0e f9 bd 60 05 92 bc 2b fb 13 bd
       0.08447316 -0.12161045 -0.017824829 -0.036128204
000200 e3 00 5c 3d bd 96 ea 3c 6b 82 f3 bd 9f e1 9f bd
       0.053711783 0.02863633 -0.1189011 -0.07806706
000210 f3 7b 05 3e 39 3f 9b 3b 50 f8 f1 bc dc d4 b9 3d
       0.13035564 0.0047377613 -0.02953735 0.09073803
000220 98 96 5d bd d2 57 47 bd d2 ff a7 3d bc fa 51 bd
       -0.054098696 -0.048667736 0.08203091 -0.05126451
000230 c3 65 7e bd 46 fd f0 bb be 19 e2 bd ba bf 05 bd
       -0.062108766 -0.0073544113 -0.11040066 -0.032653548
000240 8d 63 30 bd 8d 1b 01 3e b7 3a b1 bd 76 ff dd bd
       -0.04306369 0.12608166 -0.08653777 -0.10839741
000250 8a 6e ba 3d 0d 21 09 bc ed 92 a8 3d e9 46 75 bd
       0.09103115 -0.008369696 0.08231149 -0.05988208
000260 75 c3 e8 3c 14 2b d9 3d 4d 69 23 bc ef c9 c8 3d
       0.028413514 0.106039196 -0.009973836 0.09804141
000270 b3 91 7a bd 18 ff 4b bc fa fd 95 3d d9 78 de 3d
       -0.061174106 -0.012450956 0.07323833 0.108628936
000280 da d9 5b 3d 70 2b d4 3c 39 d6 1a bd 14 87 5f 3d
       0.053674556 0.025899619 -0.037801955 0.05457218
000290 a4 7b cd 3d 24 7f ac 3d fc 54 be bd 2d 83 71 bd
       0.10033348 0.08422688 -0.09293553 -0.05896299
0002a0 31 15 8f bd cc 4e 5d 3d 74 c2 39 bd 94 bd aa bd
       -0.06986464 0.054030225 -0.04535146 -0.083369404
0002b0 b7 e4 fb 3d f5 9f ac 3d 56 0f 91 bd d6 14 af 3b
       0.12299483 0.08428947 -0.07083003 0.00534306
0002c0 ee ab 52 bb da 0d ad 3d c9 dd 7f bd 95 56 8c bd
       -0.0032145935 0.084499076 -0.06246737 -0.06852452
0002d0 8f fc 91 3d 33 25 e8 bd 2c 2a 08 3d cc d7 c5 3c
       0.0712825 -0.1133522 0.033243343 0.024150752
0002e0 69 98 e3 bb a5 c2 62 bd 3a 0a e7 bd 87 16 c9 bb
       -0.006945659 -0.05536141 -0.112812474 -0.0061367187
0002f0 95 68 0d be 11 5b 2b 3d 49 31 c9 bd c6 f4 35 bd
       -0.13809426 0.041834895 -0.098238535 -0.044422887
000300 66 d1 b9 3d bf 5d 30 bd a7 c4 4d 3d 90 09 08 3c
       0.09073143 -0.043058153 0.05023637 0.008303061
000310 c4 04 96 bd fa ee 9a bd 4d 72 2a 3d fe 29 ca 3b
       -0.07325128 -0.075651124 0.041612912 0.0061695566
000320 0c 39 5a bc 7b 9d fd bd 35 a5 e3 3d f6 5e b1 3d
       -0.013319265 -0.12383553 0.11115495 0.086606905
000330 3d 04 e3 bb 1a 3c e2 3d 03 35 7f bd 7a da 77 bc
       -0.0069279955 0.1104662 -0.062306415 -0.015127772
000340 aa 19 5f 3d 0a 04 f4 bd bb 12 38 bc 6b 87 9b bd
       0.054467835 -0.11914833 -0.011234934 -0.07594188
000350 6b a3 e8 3d 20 79 99 3c d7 ea ca 3c 2b 51 03 bd
       0.113592945 0.018734515 0.024770183 -0.03205983
000360 12 ea ea 3d 85 57 d1 3d a8 76 04 bc 83 7d bd 3c
       0.114704266 0.10221771 -0.0080849305 0.023131138
000370 db 90 9d bd 86 df c8 ba a1 7c 96 bd b6 4e fa 3d
       -0.076936446 -0.0015325404 -0.0734799 0.12222044
000380 0a 6c aa bb 14 1e d5 3d c8 76 8b bd a6 b3 97 3d
       -0.0052008675 0.104061276 -0.06809765 0.07407312
000390 53 91 ef bd c3 37 6f 3d 96 1a ae bd 29 e2 7c bd
       -0.1169764 0.058402788 -0.085011646 -0.06173912
0003a0 d2 30 ab bd ed f3 51 bc d9 9d 36 bd f6 67 8e bd
       -0.08358921 -0.012814504 -0.04458413 -0.06953423
0003b0 a1 9d 95 3d 08 22 7f 3d ad 34 01 3e 95 5e ef bd
       0.07305456 0.062288314 0.1261775 -0.11687962
0003c0 d4 9f 32 3c bb 60 00 be a0 63 98 3c 28 83 39 bb
       0.010902364 -0.125369 0.018602192 -0.0028306935
0003d0 6c 74 45 3c 91 03 34 3d 12 a0 55 bd 51 ea 54 bd
       0.012051683 0.043948714 -0.052154608 -0.051981274
0003e0 0a e0 16 3d 18 cb 30 bc 8d 7d b5 3c 70 40 37 bc
       0.036834754 -0.010790609 0.022154594 -0.011184797
0003f0 ae 0e 1a bd f3 ff ed bd 07 f8 0b bd 8d 01 af bd
       -0.037611656 -0.11621084 -0.034172084 -0.08545218

layer4.bias f4 [10]
000000 16 ac c6 3c dc 3a d4 3d cf 4b 82 3d 9d 1b 1c 3d
       0.024251979 0.10362789 0.063621156 0.03811227
000010 3a d1 a9 bc e3 96 63 3c f3 49 9c bd 68 41 76 bd
       -0.02072965 0.013890955 -0.07631292 -0.06012097
000020 5e 58 ab 3c f3 89 b4 3b
       0.02091616 0.005509609
